…
Average actions of users: 138.51266766020865
The number of items: 3884
Average actions of items: 230.56174200661522
The number of inters: 836478
The sparsity of the dataset: 96.43435285532085%
Remain Fields: ['user_id', 'item_id', 'rating', 'movie_title']
Thu 08 Aug 2024 14:24:52 INFO  [Training]: train_batch_size = [4096] negative sampling: [{'uniform': 1}]
Thu 08 Aug 2024 14:24:52 INFO  [Evaluation]: eval_batch_size = [4096000] eval_args: [{'split': {'RS': [0.8, 0.1, 0.1]}, 'group_by': 'user', 'order': 'RO', 'mode': 'full'}]
Thu 08 Aug 2024 14:25:20 INFO  SVD_MI(
  (mf_loss): BPRLoss()
  (reg_loss): EmbLoss()
  (user_embedding): Embedding(6040, 64)
  (item_embedding): Embedding(3884, 64)
  (content_linear): ModuleList(
    (0): Linear(in_features=768, out_features=64, bias=True)
    (1): Linear(in_features=768, out_features=64, bias=True)
    (2): Linear(in_features=768, out_features=64, bias=True)
    (3): Linear(in_features=768, out_features=64, bias=True)
    (4): Linear(in_features=768, out_features=64, bias=True)
    (5): Linear(in_features=768, out_features=64, bias=True)
    (6): Linear(in_features=768, out_features=64, bias=True)
    (7): Linear(in_features=768, out_features=64, bias=True)
    (8): Linear(in_features=768, out_features=64, bias=True)
    (9): Linear(in_features=768, out_features=64, bias=True)
    (10): Linear(in_features=768, out_features=64, bias=True)
  )
)
Trainable parameters: 1176512
Thu 08 Aug 2024 14:25:20 INFO  Running E-step ! 
Thu 08 Aug 2024 14:25:34 INFO  epoch 0 training [time: 11.39s, train_loss1: 114.2646, train_loss2: 0.2572]
Thu 08 Aug 2024 14:25:34 INFO  epoch 0 evaluating [time: 0.14s, valid_score: 0.087600]
Thu 08 Aug 2024 14:25:34 INFO  valid result: 
recall@10 : 0.073    recall@20 : 0.128    recall@50 : 0.2368    ndcg@10 : 0.0876    ndcg@20 : 0.1013    ndcg@50 : 0.1357    
…
